SMArtInt/Resources/ExampleNeuralNets/TFAgentsCartPole/cart_pole_DQN.tflite (tflite, 69132 bytes, 8 tensors)

sequential/dense/BiasAdd/ReadVariableOp f4 [100]
00000000: 3980 113f 4af0 d1bf 0000 0000 e874 4e3f
00000010: f0d2 d7bf fc99 a73e 0000 0000 066a 7d3f
00000020: 4d44 4b3f 0000 0000 5ccd 95be 901b 16bf
00000030: 8357 643f 0000 0000 17cc 033f 515a 4e3d
00000040: c8e3 bc3f 95ec c8bf edd0 64bf 44e4 c53f
00000050: ea70 84b8 3301 c9be d805 783f 54bc 413f
00000060: b6e6 d9bd e17d 01be f59c c7bf cd68 9a3f
00000070: 0000 0000 9034 1940 b988 84bf 9661 013f
00000080: 49e8 67bf ad3c d1be 0000 0000 0000 0000
00000090: 33a3 3c3f 2d3f 4b3f baf1 403f 8f26 a33f
000000a0: d76d 43bf ee7f 8b3f ccb8 3d3f 77da 923e
000000b0: b576 d8be 6dbd b7bf c818 443f 7fa6 54be
000000c0: 877f 7f3f dc48 b23e eb5c 88be d574 f5bf
000000d0: 06e6 3b3f 0000 0000 6322 d2bf 3bc0 80bc
000000e0: 0000 0000 0000 0000 db72 02bf f50b 1b3f
000000f0: 0000 0000 d88d d93f adfa b3be 4b93 36bf
00000100: 934b 8fbf 29f6 66be 0000 0000 0000 0000
00000110: 5c38 b53f 888e 663f 4695 46be 6523 d1be
00000120: db1c 02bd 7bc4 1d40 0000 0000 f1db 73bf
00000130: 17c5 863f 0000 0000 de1c 02bd 6496 b2be
00000140: 261a f13f 0000 0000 3ece b13d 5d52 a13e
00000150: 0000 0000 82ff c83f 32e3 913f 6377 863f
00000160: d106 2340 2e10 133f f12a 5d3f 07d2 543f
00000170: d58f 863f ea16 cc3f 9814 583f 6a82 b43f
00000180: fe35 39be 8024 94be cd00 a23e dd09 bd3f
0.5683628 -1.6401455 0.0 0.80647135 -1.6861248 0.32734668 0.0 0.98989904
0.79401094 0.0 -0.2925824 -0.5863581 0.8919603 0.0 0.5148329 0.0503791
1.4757013 -1.5697199 -0.89381295 1.5460286 -6.3152824e-05 -0.39258727 0.96883917 0.7567799
-0.10639708 -0.12645675 -1.5594774 1.2063233 0.0 2.3938332 -1.0354224 0.5053953
-0.90588814 -0.40866604 0.0 0.0 0.7368652 0.79393274 0.75368845 1.2746142
-0.7633948 1.0898416 0.741101 0.286823 -0.42278066 -1.4354683 0.76600313 -0.20766638
0.99803966 0.34821212 -0.2663339 -1.9176279 0.7339786 0.0 -1.6416744 -0.015716663
0.0 0.0 -0.50956506 0.6056512 0.0 1.6996412 -0.35152188 -0.713185
-1.1194938 -0.2255484 0.0 0.0 1.4157825 0.90061235 -0.19392881 -0.40847316
-0.0317658 2.4651172 0.0 -0.9525748 1.0528897 0.0 -0.03176581 -0.34880364
1.8836105 0.0 0.08681916 0.3150815 0.0 1.5702975 1.139746 1.0505184
2.547291 0.57446563 0.8639365 0.83132976 1.0512644 1.5944493 0.84406424 1.4102299
-0.18087003 -0.28934097 0.31641236 1.4768635

sequential/dense_3/BiasAdd/ReadVariableOp f4 [6]
00000000: 4fd9 8140 60d0 3240 0aac 853f e4da 923f
00000010: 121d 0b40 03d3 1040
4.057777 2.7939682 1.0443127 1.147305 2.1736493 2.2628791

sequential/dense_2/BiasAdd/ReadVariableOp f4 [50]
00000000: 6dcb c23f 237b 9e3f 6ab5 b23e e811 6cbf
00000010: 9415 82bd e222 5b3f 393a 3540 ff6e 94bd
00000020: 053e 4b40 cd0f c13f 0418 c23f bf14 2e40
00000030: 8889 953f 6d3e fb3f 7aae 843e 5381 0a40
00000040: 106f c63f b49b 13bd a173 ce3f 0000 0000
00000050: 51b0 b63f 45b3 4740 41cc d13f 1d29 b340
00000060: 3e3c 773f 166f 7a40 5277 5f40 827d 0140
00000070: ed8f 67bf 9706 6b40 c70a 3840 20c0 0f40
00000080: 4a82 703f cd52 0540 4a33 a33f 162c 1a40
00000090: 9ecd 1d40 fc13 9140 1a3e bd3f 6994 98bd
000000a0: 5b70 03bf 0d50 85bd 1887 603f 83c1 fe3f
000000b0: 132e 0e40 a7ed 4040 26a8 a7bf 28da a740
000000c0: 837a 0140 2999 b53f
1.5218331 1.2381328 0.34904033 -0.9221482 -0.06351772 0.856001 2.8316786 -0.07247733
3.1756604 1.5082947 1.5163579 2.7200162 1.1682596 1.9628426 0.25914365 2.1641433
1.5502644 -0.036037162 1.6129037 0.0 1.4272557 3.1203167 1.6390458 5.5987687
0.965763 3.9130301 3.4916577 2.0232854 -0.9045399 3.6722772 2.8756578 2.2461014
0.93948805 2.0831788 1.2750027 2.4089408 2.4656749 4.5336895 1.4784577 -0.07450182
-0.51343316 -0.06509409 0.87706137 1.9902805 2.2215621 3.0145051 -1.309819 5.2453804
2.0231025 1.4187366

sequential/dense_1/BiasAdd/ReadVariableOp f4 [100]
00000000: b5c8 c33e c8d3 b4bf c718 033f aae9 3f3d
00000010: 72d9 ee3f 77c5 50be 6939 bdbd a61c 02bd
00000020: a42e a0bd b3af 0640 9190 e3be be00 f1bd
00000030: a6ad 2b3f 4606 fd3e 056a 063f bf5a 0fc0
00000040: 211c 8a3e 038f e73f 43ce 843f bb2f e03f
00000050: d11c 82bd 1fc2 8cbd d9c3 d83f 75e2 0540
00000060: eb0b 94bf 7514 a0bd a2c3 e73f b6c9 e4be
00000070: d747 ec3f c2a7 a6bd e32e da3f 4657 c13f
00000080: 9558 f2be 5dc2 d83f 3d5e 3abd 7749 3cbd
00000090: d85f e33e 1023 223f 1830 e73f d1e8 063e
000000a0: ca2a e43e 0870 a8bd 1a2f 9dbe a024 e93f
000000b0: 630c f53f 35fe 10be d9e1 4b3f 4346 9c3f
000000c0: 403f 0040 0ad0 f83f 6582 9cbe f4cf 84bd
000000d0: 9718 82bd a55a a7bd 27de b53e 80aa ad3f
000000e0: b1c4 a63f 0d20 b2be 09ec 0340 dc1c 02bd
000000f0: 0eea d1bf dab1 f0be ad27 0b40 773c 1cbf
00000100: 07d0 07bf 50df 0ebd 60bb 0140 dc1c 02bd
00000110: b111 d83f 6d20 e7bd 5bb2 923f 1aa1 6ebe
00000120: 5fef c1bd 5cdf c63f 37e0 c53f 14a1 aabe
00000130: da1c 02bd 4c23 67bf 2ff1 58bd 5b83 883e
00000140: 6d2b df3f 16b8 87bd 4f5c 113f f0eb fa3f
00000150: d954 99bd 11dd 3340 eca6 0740 b1f9 0240
00000160: e44d dabd 2b56 0540 0f54 e2bc 8369 fd3f
00000170: 2c0b cabd 9b86 2ebe a7d8 3ebd 5ee2 8d3f
00000180: effc ccbf f260 6dbd 7b2b d23d 45d6 76bd
0.38239065 -1.412713 0.5120968 0.0468537 1.8660109 -0.20387827 -0.09239466 -0.031765603
-0.07821396 2.1044738 -0.44446233 -0.1176772 0.6706184 0.4941885 0.5250552 -2.2399137
0.26974586 1.8090519 1.0375446 1.7514566 -0.063531525 -0.06872963 1.6934768 2.0919468
-1.1566137 -0.07816402 1.8106577 -0.44685143 1.8459424 -0.08137466 1.7045559 1.5104759
-0.47333208 1.6934315 -0.04550003 -0.0459685 0.4440906 0.6333475 1.8061552 0.1317475
0.44563895 -0.08224493 -0.30699998 1.8214302 1.9144405 -0.14159472 0.7964149 1.2208942
2.0038605 1.9438488 -0.30568233 -0.064849764 -0.063523464 -0.08171586 0.3552105 1.3567657
1.3028775 -0.34790078 2.0612814 -0.031765804 -1.6399553 -0.4701069 2.1742966 -0.6102976
-0.530518 -0.034880936 2.0270615 -0.031765804 1.6880399 -0.112854816 1.146068 -0.23303643
-0.094694845 1.5536914 1.545905 -0.33326018 -0.031765796 -0.90288234 -0.052964386 0.26662716
1.7435127 -0.066269085 0.56781477 1.9603252 -0.074868865 2.8103678 2.119563 2.04649
-0.10659388 2.0833843 -0.027627973 1.9797825 -0.09865412 -0.17043535 -0.046593335 1.1084707
-1.6014689 -0.057953782 0.102621995 -0.060262937

sequential/dense/MatMul f4 [100, 4]
00000000: de40 533f b7e3 15c0 a3c1 18be bd6f 743f
00000010: 8de2 9a3f f51b 473d 0406 3d3e 6924 f03f
00000020: e222 ce3e ee77 8dbe fd68 49be a30c 9abf
00000030: d67b b63e 69e7 f3bf 2eec a2bf 291b a43f
00000040: 5c2e 9f3f 4915 b13e c405 3f3e 2d2c d53f
00000050: 39b8 b13e cb95 b9bf 08e3 713d 2058 393f
00000060: 356f cc3e 02ed cfbe 9c49 59be c017 40bf
00000070: 1070 c2bf 1e4f dabf 2ea8 813e 5ded 843f
00000080: 8235 063f f851 313e 19c2 8bbf abaf 06be
00000090: 5d41 98bf 18ac 74bf cb9d 23bf 611b 59bf
000000a0: e361 3ebf 9fdf 373f 8918 2fc0 b4d1 c83f
000000b0: 8932 8cbf 421e cabf 319a c83e fd18 a1bd
000000c0: 6e7e 543e 3e0d 0fc0 9a33 3dbf 1ae2 3b3f
000000d0: e6f6 643e baec 0ebf a293 3ebf a0f8 17be
000000e0: b213 3c3d 54cb 27c0 f739 7b3d 5c3b 9b3f
000000f0: b0d5 81bf b5b0 1ac0 a5dc 163f 732d 2f40
00000100: ae36 0a3e 186e 3cbf 96c2 7cbf 6fef ffbf
00000110: 8b57 a8bd e510 d23f 89bd 31be 6e45 b43f
00000120: 2dd4 f0bf e907 fa3f b2c4 e13e 20e7 0140
00000130: 198a 9abd 1842 4bbf bebe 71bf 2a70 d0bf
00000140: 66a2 023f 980e 0640 35b6 dcbd 3830 21c0
00000150: 02fe 13c0 60cd efbe feaa 653e 52e5 5d40
00000160: 2ef4 163c 9e68 c8bf e081 403e e2e7 26bf
00000170: 7c1b 4f3f fdd9 aebf d4b4 2dbf ec0d a2bf
00000180: cd85 8bbf d959 56bf d9eb 723f 6dc3 8fbf
00000190: 6b1f 2fbf bc2f 6abf 68f7 a33d 3230 453e
000001a0: 0bd4 9b3d 887b c43f f554 ab3f 4d62 bebe
000001b0: ece8 04bf 1091 9e3f 00fa 4dc0 2688 94bf
000001c0: b4dc a1be 0eaf 0e3e d29e cdbe 66e6 2bbe
000001d0: e9dd 823f c94a a5bf 440e cbbf aa7f 84c0
000001e0: 4080 0f40 f56a 3b3e df11 733f 0073 d2bf
000001f0: 1149 5e3f 82ef fabf 93f3 edbe 4175 663e
00000200: 6ecb 033e b11a 1940 bb06 08c0 66b6 9a3e
00000210: f70f 87bf 4735 66be f54b 8c3e c14e a1be
00000220: ac14 5cbf 5297 9ebf c5be 3fbd 51a1 0fbe
00000230: 4eb9 453e fefe 42bf 7e9b 83bf cf83 763e
00000240: d089 e73e 536e c03e 0fb1 64bf 4492 f0bf
00000250: 726d e4be 830c 2c3f 9a5a 9c3c ab3d b0bf
00000260: 3123 a23f da11 86bf 5eba 96bf 0ded dc3e
00000270: 381a 6fbf 8274 97be d22c 29c0 9b28 edbe
00000280: 6d97 0040 273e b33f 4bef ddbf a18e b9bf
00000290: 0287 56be 989b a5bf 4048 8dc0 bdf6 0e3f
000002a0: 2f32 83bf 7d2b ac3f f55f 0cc0 aeaf f5be
000002b0: a629 2a3e eab3 e0bf e50d 723e ab75 533f
000002c0: d1c4 a83e d031 f53f d7ac f5bf 2ed8 4fbf
000002d0: 3bec eebd 025d 693f f0ad 5fbf e793 1840
000002e0: f70a 54be 40b0 08be 4294 ebbf c1e7 d8be
000002f0: e3db d03e 32e3 e7bf f30c b53e c54b b73f
00000300: 5266 163e 057e 0dbf 0362 36bf e952 9fbf
00000310: a1dd 4a3f 4303 9dbf 1277 2bbf 56b5 1c3e
00000320: ce5f 1fbf 33aa 5dbf 744b 2a3e 60f9 16bf
00000330: c2d0 f63e e9d2 453f 059b 8c3d 1864 0640
00000340: 2c18 e3be 3bcf bd3f b400 a3c0 1215 8cbf
00000350: 934d 28bf 02e1 a3bf c15d c3bf 9042 c9bd
00000360: 4c08 6b3e fdb1 853f 91c4 e3be ba9b 2040
00000370: 8192 cdbe ea18 ad3e 7f86 7fba 65ee 0fbf
00000380: 2901 b5be bae0 16be 199e 20be b12d d4bc
00000390: 2bb1 d73e bddd 60bf f482 c7bd 957d 9fbe
000003a0: a561 193f 1361 173f 2930 71c0 91f3 0240
000003b0: 8a66 66be c691 febf 3364 2abf 01a8 793f
000003c0: b539 03bf 4956 83bf 816b 15bb 7149 c9bf
000003d0: 9d1a 283f 9fa4 b03e ef50 6dc0 8b4c c0bf
000003e0: 9a6d 9fbd c14d bd3f 9683 50c0 fbdc 933f
000003f0: c3e8 85be d33a bbbf 1866 da3e 26a9 3440
0.82520854 -2.3420236 -0.14917617 0.95483 1.2100388 0.048610646 0.18459326 1.8761111
0.40260988 -0.27630562 -0.19668956 -1.2035106 0.35641354 -1.9054996 -1.2728326 1.2820789
1.2436023 0.34586552 0.18654543 1.6654106 0.34710863 -1.4498838 0.059054404 0.72400093
0.39928594 -0.4061051 -0.21219486 -0.7503624 -1.5190449 -1.7055395 0.25323623 1.0384938
0.52425396 0.17316425 -1.0918609 -0.1315295 -1.1894947 -0.95575094 -0.6391265 -0.848074
-0.74368113 0.71825594 -2.7358725 1.5688996 -1.0952922 -1.5790484 0.3918014 -0.07866094
0.20751354 -2.2351832 -0.7390686 0.7339188 0.2235981 -0.55829966 -0.7444402 -0.14840937
0.04591722 -2.6217852 0.061334576 1.212749 -1.0143337 -2.4170353 0.58930427 2.737149
0.13497421 -0.7360549 -0.98734415 -1.9994944 -0.082198225 1.6411406 -0.17357458 1.4083688
-1.8814751 1.9533664 0.4409538 2.0297318 -0.07545871 -0.79397726 -0.94431674 -1.628423
0.5102905 2.0946407 -0.10776941 -2.518568 -2.3123784 -0.46836376 0.2242851 3.4671216
0.00921349 -1.5656927 0.18799543 -0.65197575 0.8090131 -1.3660275 -0.67854047 -1.2660499
-1.0900208 -0.83730847 0.94891125 -1.1231514 -0.68407315 -0.91479087 0.08006173 0.19256666
0.07608803 1.5350199 1.3385302 -0.37184373 -0.5191791 1.238802 -3.2183838 -1.1604049
-0.31613696 0.13933966 -0.40160233 -0.16787109 1.0223972 -1.2913448 -1.5863729 -4.140584
2.2422028 0.1830252 0.94949144 -1.6441345 0.8683024 -1.9604342 -0.46474895 0.22505666
0.12870571 2.392254 -2.1254108 0.30217284 -1.0551747 -0.22481261 0.274017 -0.31505397
-0.8596904 -1.2389929 -0.04681279 -0.14026381 0.1930897 -0.7617034 -1.0281827 0.24073718
0.4522233 0.3758417 -0.8933267 -1.8794637 -0.4461475 0.6720659 0.019086171 -1.376882
1.266699 -1.0474198 -1.1775625 0.43149605 -0.9339938 -0.29581076 -2.6433606 -0.46320042
2.0092423 1.4003342 -1.7338651 -1.4496652 -0.20949939 -1.2938108 -4.4150696 0.5584524
-1.024969 1.3450772 -2.1933568 -0.47985595 0.1661745 -1.7554905 0.23638113 0.8260142
0.3296266 1.9155827 -1.9193372 -0.8118924 -0.11666151 0.91157544 -0.8737478 2.3840272
-0.20707308 -0.13348484 -1.840462 -0.42364314 0.4079276 -1.811621 0.35361442 1.4319998
0.1468747 -0.55270416 -0.71243304 -1.2447177 0.7924443 -1.226662 -0.6697856 0.15303549
-0.6225556 -0.8658783 0.16630346 -0.58974266 0.48206145 0.7727495 0.06865505 2.0998592
-0.4435438 1.4828867 -5.093836 -1.094393 -0.6574337 -1.2803042 -1.5262986 -0.09827149
0.22952384 1.0444943 -0.44485906 2.5095048 -0.40150836 0.3380807 -0.00097475195 -0.56223136
-0.35352448 -0.14734164 -0.1568531 -0.025900694 0.42127356 -0.87838346 -0.09741774 -0.311505
0.5991462 0.591325 -3.7685645 2.046116 -0.22500053 -1.9888237 -0.6655914 0.9752198
-0.5125993 -1.0260707 -0.0022799673 -1.5725538 0.6566561 0.34500596 -3.7080648 -1.5023359
-0.07784577 1.4789354 -3.2580314 1.1551813 -0.26154146 -1.4627327 0.42656016 2.822824

sequential/dense_1/MatMul f4 [100, 100]
00000000: 258d c43f 57d4 91bf 6289 70bd 8aa2 fe3d
00000010: 0b2c 2ac0 eec5 753d cec4 b5bd e8e1 4ec1
00000020: 4e62 8c3d bd12 263e 9a68 a1bd b102 733e
00000030: 35a5 693f 7df8 11be 0122 c1bf 500e 23c1
00000040: 8a3c 4ec0 b658 a5bf 1d74 27bf f7a8 f1be
00000050: bdbb 6bc1 7798 b0bd fef8 3e3f 3fd5 9dbf
00000060: e1c5 0a3f 5443 fb3e ec32 ea3e cba3 0540
00000070: 39d6 63be 8bbc a3c0 60dd 033f ea91 333f
00000080: a7b1 733f d7e2 8f3e 6df3 b33d f31c f23c
00000090: 1362 7cbf 2ef1 80be 15ba 32be b920 e8bf
000000a0: 5c52 02c0 b41c a7bf a488 b83f fddf 26bf
000000b0: b866 29c0 e853 be3f 00b6 66bf 6bd3 9fbf
000000c0: e998 2cbf a3b8 57be 8737 9c3e c350 f2bf
000000d0: a91d 3cc0 8fd8 0dbd a8fb 74bd 4e34 883e
000000e0: e403 a03e e5ec f6bd 65ea f2bd fd7c 2e3f
000000f0: 399b aabd fd64 1ec0 32e2 d03f 1e5b 94bf
00000100: 5559 67c1 eee3 803f 4d33 eabd bd69 f0bc
00000110: ee16 813f 0e92 b23d 52df 873e 7995 dc3d
00000120: e672 98be 850a 0bc0 f7d7 d2bd 76b9 0e40
00000130: 74df 3ebf a81e 83be c97e e5bb cbc7 f6c0
00000140: f2b2 bb3e 584c e5bc 86c8 ac3e b00a 003f
00000150: b92e cd3d 2555 79be 1ab8 a73e f08e a43f
00000160: 417c a5c0 a306 6b3e dde4 9bbd c36b d83f
00000170: 5b7f 68c1 c02f f6be e112 8dbf 0947 3240
00000180: 9e69 5ec1 570a db3f b0ca 90bf 6d61 87be
00000190: d589 e4bf 8e74 10bf 9dc5 2abe 3877 843f
000001a0: 304c 5dbf c56b b73e c00d dfbd 0708 8bbf
000001b0: d6fd cf3e 386a ba3d a4f8 f13e 85d9 f83f
000001c0: b990 44c0 a4d1 71bd b38b 5ec0 0be9 1240
000001d0: 1949 24c0 ed0e 47bf 545b 13c0 51e8 6cbf
000001e0: 46c0 c7be e020 1b40 3c8f 4ac0 0efb 3a40
000001f0: 9770 a33f 66d7 8c3f 416e 1940 80c3 60c0
00000200: 6d26 d9bc e780 d0c0 a98d 2d3f cc30 9abf
00000210: b6f3 3fc0 86ba 9d3f 85c7 803d 5035 02bd
00000220: 539f 0a3e 4f2a 813f c09c 793f 4ed5 b8bf
00000230: 55aa 703f 089f ccbe c17a bdbf 8d27 c23e
00000240: 0c40 44bf aa2d 8cc0 885d 5ac0 e247 5dbf
00000250: 6ed3 8dc0 ae26 c6be 540f d73f f36b 70c0
00000260: cd5d d4bf f1b2 543e 4c77 7bc0 f3db 483e
00000270: fa90 dfbc a5b9 14bd 09d3 20c0 412d 92c0
00000280: 8fac 4fbe 66c2 0e40 59a9 f9bf b398 8840
00000290: 78b1 323f d654 ad3e f688 37be db96 b63b
000002a0: 969e 143f 3c5a 63bc 25cb 913f 6a69 e13f
000002b0: 969b 453d 8d99 22c1 2c63 393d 73f6 fa3f
000002c0: 2210 413f c0f0 18bd 4276 fe38 411e 0cc0
000002d0: 3fe3 4a40 18ba cd3d fb8c b2bf d4ef cc3e
000002e0: 6c38 4ebc 6e41 df3f 8bf2 353f 1e72 943f
000002f0: 5d88 a7c0 6e7f 843e 00fe d73e 9106 89bf
00000300: 4d99 183f 1b6c 0f40 10c2 b93f bb6a 92c0
00000310: 7e6a 183f 9f73 0b40 a9a0 583f 5234 32be
00000320: b4a2 9ec0 3fb6 b8bf 646e 8e3e d36b 13c0
00000330: e0bb a6bf 1192 903e 6938 4d3e 9ef0 0ec1
00000340: b478 6b3e e38f 05be 9fac 2040 ab43 bcbc
00000350: 8d95 3240 b510 c3bc 3641 9dbd 01a4 1ec0
00000360: 2ca2 2dc1 2b8b 253f 6aa4 f1bd d764 8dbe
00000370: 90a4 0ec0 c332 01bf 15c1 5abf 4d5e 713e
00000380: 72db 5b3f b17f 153f 6bf7 6ebf f95c 393f
00000390: 190b cf3c a6ba e1bf 24f2 83bf b894 0c40
000003a0: 9802 b03f 53d6 803e 47ef ed3d ee99 be3d
000003b0: 2892 95c0 748d b8bf 4fdd 17bf 933f 95bf
000003c0: 4f83 60bf d613 d0bf 9d2a 48bd 6c99 cdbe
000003d0: 78de 42be a1a6 8b3f 444b 0cbf 4fc1 07c0
000003e0: 30aa 42c0 820d f53c 9c6f 223d 7236 02bf
000003f0: 9539 f0bf 3b3c 2c3e 7eca 1e3e 5a23 2abe
1.5355574 -1.1392926 -0.05872477 0.124333456 -2.6589382 0.060003214 -0.08875428 -12.930153
0.06854688 0.16218086 -0.07881279 0.23731495 0.9126771 -0.14254947 -1.5088502 -10.190994
-3.222445 -1.2917697 -0.6541155 -0.47199222 -14.733335 -0.0862283 0.7459868 -1.2330703
0.5420819 0.49074805 0.45741975 2.0881221 -0.22249688 -5.1167655 0.51509666 0.7014452
0.9519295 0.28102753 0.08786664 0.02955482 -0.9858715 -0.25184005 -0.17453797 -1.8134986
-2.0362768 -1.3055634 1.44167 -0.6518553 -2.6468945 1.4869356 -0.9012146 -1.2486395
-0.6742082 -0.21066527 0.30511114 -1.8930897 -2.9393103 -0.034630354 -0.05981031 0.26602405
0.31252968 -0.12056903 -0.118611135 0.68159467 -0.083303876 -2.4749138 1.6319029 -1.1590307
-14.45931 1.0069559 -0.11435566 -0.029347295 1.0085123 0.08719264 0.26537567 0.10770697
-0.2977516 -2.172517 -0.10295098 2.2300696 -0.7455971 -0.25609326 -0.0070036394 -7.711889
0.36659962 -0.027990505 0.33746737 0.5001631 0.10018677 -0.24348886 0.32757646 1.2856121
-5.1714177 0.2295175 -0.076120116 1.6907886 -14.531093 -0.48083305 -1.1021386 2.7855856
-13.900785 1.711253 -1.1311855 -0.26441517 -1.7854563 -0.5642785 -0.16676946 1.0348883
-0.8644438 0.3582441 -0.108912945 -1.0861825 0.4062335 0.09102291 0.4726001 1.9441382
-3.0713332 -0.05903782 -3.4772766 2.2954738 -2.5669615 -0.7775715 -2.3024492 -0.92541987
-0.3901388 2.4238815 -3.1649923 2.9215732 1.2768735 1.1003234 2.3973544 -3.5119324
-0.02650758 -6.515735 0.6779428 -1.2046142 -2.99925 1.2322547 0.06288055 -0.031789124
0.1353734 1.0091037 0.97504807 -1.4440095 0.94009906 -0.3996508 -1.4803087 0.379208
-0.7666023 -4.380574 -3.4119587 -0.8643781 -4.4320593 -0.38701385 1.6801553 -3.7565887
-1.6591126 0.20771386 -3.9291563 0.19615154 -0.02729081 -0.036309857 -2.5128806 -4.568024
-0.2028067 2.2306151 -1.9504806 4.26864 0.69802046 0.33853787 -0.1792334 0.0055721826
0.5805448 -0.013876494 1.139012 1.7610295 0.04824408 -10.162488 0.045260593 1.960646
0.7541524 -0.037338972 0.00012133691 -2.1893466 3.17012 0.1004526 -1.3949274 0.40026724
-0.012586694 1.7441843 0.71073216 1.1597326 -5.235396 0.2587847 0.42185974 -1.0705129
0.5960892 2.2409732 1.4512348 -4.5755286 0.59537494 2.178932 0.8462015 -0.17402771
-4.957361 -1.4430617 0.27818596 -2.303456 -1.3026085 0.2823644 0.2004105 -8.933744
0.22995263 -0.1304317 2.510536 -0.022981485 2.7903779 -0.023811677 -0.076784536 -2.47876
-10.852093 0.6466548 -0.117989376 -0.27615997 -2.228794 -0.5046808 -0.8545087 0.23571129
0.8588172 0.58397967 -0.9334628 0.7240749 0.025273846 -1.7635086 -1.030827 2.196577
1.3750792 0.25163516 0.11617904 0.093067035 -4.6740913 -1.4418168 -0.59322065 -1.1660026
-0.8770036 -1.6256053 -0.048868764 -0.40156114 -0.19030178 1.0910226 -0.54802346 -2.1211736
-3.0416374 0.029913668 0.03965722 -0.50864327 -1.8767573 0.16819851 0.15506932 -0.16615048

sequential/dense_2/MatMul f4 [50, 100]
00000000: a153 5941 3584 aabf cef8 dd3f 5544 8ec0
00000010: e14f d5be ceb7 8b3f 5d7b 12be 4284 80b9
00000020: 6cd2 e53c 1678 6f3f 20e5 34bf 0001 63bd
00000030: 0524 ad40 56b1 3940 994e a2c0 b4af 64bc
00000040: 9a60 8b3f e7ad 6d3f abe8 1140 a5af b83e
00000050: c5c7 e53d 1479 fdbc 64a6 2840 0aab 4d3f
00000060: 2581 acc0 aefe ce3b e1c6 0d3f 291b 28c0
00000070: 4714 853f d634 81be 5d37 4bbf 6a5b 293d
00000080: fd43 4640 d2e9 acbe c74a 9cbd 4f81 81c0
00000090: 2aed 64c0 0237 0ec0 9d56 003f 9c81 e740
000000a0: a6eb b3bf 79a3 50be 3b15 5dc0 56b8 5c3f
000000b0: 68fd 423f 883a 2340 12be c240 a072 f83f
000000c0: 1f88 7b3f a464 71bf ab0f 43c0 aed4 90be
000000d0: d4e9 f1bd fb1c 0bbe 3f2d eb40 478b a6bf
000000e0: 9810 2ebf 6da7 aebe a361 6e3f 59ea d43c
000000f0: cfa8 cd3e b438 2a40 7b8e 44bf f141 d83e
00000100: 2bd5 5640 04e1 843c 0ab8 513f 7355 7a3e
00000110: 274f 0040 b9da 8f3c 55a5 a040 58f5 2ec0
00000120: b747 b73d 11f0 ab3f 6354 f63f 3277 52c0
00000130: a7a9 1dbe 1279 ccbe 565d a33e c940 7ec0
00000140: 6284 0540 b60e e03d 70fb 43c0 00b5 7a3f
00000150: 0aab 1e3d 97de 70bd 5a00 d33c 89d8 e33d
00000160: 1270 28bd d812 853f 5cc6 663e f260 7d3f
00000170: 5343 8140 dee1 b340 7008 5940 9b25 4840
00000180: cd3c 70c0 6d15 9cbd 45ea cdbf 2807 babb
00000190: e61d 1e41 4b59 b83d bca3 cfc0 df1f c6c0
000001a0: 3c52 083f 0c43 b3bf 0d10 a43d a046 bbbd
000001b0: 5ffd 453e 04fb 443f 2c6a 0bc0 a766 363d
000001c0: 4d4c 8a40 9a0a 10c0 ea0e babf 620f 9b40
000001d0: d1ff 94c1 aabe 733f db1f 383e 9922 b23f
000001e0: c5ff 083e 286d 783d 2c94 2040 9be0 333f
000001f0: f567 fbc0 44c1 c6bd 1e5b 483f be24 29c0
00000200: 8e5f a63f f0a3 efbd bb7a a9be 5cdb 1540
00000210: 4c5d 9b40 b084 bdbd 0704 10be e1c0 ecbe
00000220: 5e71 6dc0 ed64 c1bf 8256 743e c038 5040
00000230: 9581 c7bf c8cb e5bc 1230 2bc1 c42f fd3e
00000240: 188a 1e3f 8143 25c1 dc0c 6e3f 3d40 ed3f
00000250: 88fb 823f 3151 383f 56d4 3bc0 aa45 dfbb
00000260: eac8 d03d f935 4ebd 32c8 c940 d117 9f3c
00000270: 3325 da3e 6e16 90c0 5a55 073f 71f2 86be
00000280: 30f7 c740 6468 26c0 8779 b7be c51d c7bf
00000290: 28a4 29c0 ece2 22be 1606 f43e cf7c d2bd
000002a0: 7483 35ba 8941 48be 33f4 2640 d18b 19c1
000002b0: 7c7d c63d f789 db3f ec25 1440 87f1 19c0
000002c0: 3346 4d3e c3df db3e 7383 9d3d 1819 10c1
000002d0: ea6b 1540 6c2f 2abe 41df 1ac0 89dc 1d3f
000002e0: b889 0dbc 6da9 ac3f b922 533f b71c cb3e
000002f0: 1720 a63b 8ac4 563f ae12 17be d819 0b3f
00000300: 94cc 263f 442d c7bf 6382 7640 deef 6e3f
00000310: 80a5 7ec0 1d50 46bb 592a a73f 114b 37be
00000320: a686 b1c0 4427 2640 1aa5 f5bf 3648 1dbf
00000330: 6d75 33c0 8897 cac0 6abe 88bc e7f0 1bbe
00000340: ffac 703d 35a3 ea3e be5d 013f 5d68 133d
00000350: b252 bcc0 5201 373f 45a9 ae40 a54b 7e3f
00000360: 9772 2140 51dd a3c0 2f6f 463e 6d02 bfc0
00000370: aa22 bd3d a980 1b3d 08cc b33f 2977 b6be
00000380: 30e4 2b40 ea25 cc3c 6670 abc0 194b 2d40
00000390: 4ee3 90c0 0233 7a3e ac19 d9c0 f5d8 403f
000003a0: 66d9 94c0 49dc 02c1 fe69 fbbd ef64 7641
000003b0: 5ccb 3640 a837 9c3f 04e2 f63f 9f58 dcc0
000003c0: 54e4 973e 109e 353e ce39 4840 e7cc 67bf
000003d0: 45e2 fb3e 49d0 28c0 cd16 44c0 4f04 65c0
000003e0: 6ab8 d23f 8935 aabf c874 2440 2f7e 46be
000003f0: 3e5b f43b d7ee 6ebd 804b 04c1 45a0 6440
13.582917 -1.3321596 1.7341554 -4.4458413 -0.41662505 1.0915468 -0.14304872 -0.00024512602
0.028054439 0.9354261 -0.70662117 -0.055420876 5.410647 2.9014487 -5.0720944 -0.0139579065
1.0888855 0.9284348 2.279826 0.36071506 0.11219744 -0.030941524 2.6351557 0.8033911
-5.3907647 0.0063169813 0.5538159 -2.6266577 1.0396813 -0.25235623 -0.7938135 0.041346945
3.0978997 -0.3377214 -0.0763145 -4.0470347 -3.5769753 -2.2221074 0.5013216 7.2345715
-1.4056289 -0.2037486 -3.4544208 0.86218774 0.7616792 2.5504475 6.085702 1.9409981
0.9825458 -0.9429419 -3.0478313 -0.28287262 -0.11812177 -0.13585274 7.349273 -1.3011254
-0.6799407 -0.3411211 0.9311773 0.025990652 0.40167853 2.659711 -0.7677991 0.4223781
3.3567607 0.016220577 0.81921446 0.24446659 2.004831 0.01756035 5.020182 -2.7337246
0.089492254 1.3432637 1.9244503 -3.288525 -0.15396748 -0.3993612 0.31907147 -3.9727042
2.086205 0.10940306 -3.0622215 0.97932434 0.038737334 -0.05880603 0.025757004 0.11125285
-0.041122504 1.0396376 0.22536606 0.9897605 4.0394683 5.6213217 3.39114 3.1272953
-3.753711 -0.07621274 -1.6087118 -0.0056771226 9.882299 0.09001406 -6.488737 -6.1913905
0.5325048 -1.4004836 0.08010874 -0.0914433 0.19334935 0.7694552 -2.1783552 0.04453149
4.321814 -2.250647 -1.4535801 4.845628 -18.62491 0.95212805 0.17980902 1.3916808
0.13378818 0.060650975 2.5090437 0.70264596 -7.85644 -0.09704831 0.78264034 -2.6428676
1.2997911 -0.117011905 -0.33101448 2.3415136 4.855139 -0.09253824 -0.14064036 -0.46240905
-3.7100444 -1.5108925 0.23861125 3.2534637 -1.558642 -0.028051272 -10.699236 0.49450505
0.61929464 -10.32898 0.9298837 1.8535229 1.0233011 0.7199889 -2.934835 -0.0068137245
0.10194571 -0.05034444 6.305688 0.019420536 0.42606506 -4.502738 0.5286461 -0.26356843
6.2489243 -2.6001215 -0.35834906 -1.555596 -2.6506443 -0.15906876 0.47660893 -0.102777116
-0.000692419 -0.1955625 2.6086547 -9.596635 0.09691903 1.7151479 2.3148146 -2.4053667
0.2004631 0.42944154 0.076910876 -9.006126 2.3347116 -0.16619653 -2.4198763 0.61664635
-0.008638792 1.3489205 0.8247486 0.39670345 0.0050697434 0.83893645 -0.1475322 0.5433631
0.6515591 -1.5560689 3.8517082 0.9333476 -3.9788513 -0.0030260154 1.3059798 -0.1789973
-5.5476866 2.5961466 -1.919101 -0.6143831 -2.804042 -6.3309975 -0.016692359 -0.15228616
0.058758732 0.45827642 0.50533664 0.0359882 -5.8850946 0.7148639 5.458163 0.99334174
2.522619 -5.120766 0.1937835 -5.969046 0.09235127 0.037964497 1.404664 -0.35637787
2.6858025 0.024920423 -5.3574705 2.7077086 -4.527747 0.2443352 -6.784384 0.7533105
-4.651538 -8.178781 -0.12276076 15.399642 2.856162 1.2204485 1.9287724 -6.885818
0.29666388 0.17736077 3.128528 -0.9054703 0.49196067 -2.6377127 -3.0638916 -3.578388
1.6462529 -1.3297588 2.5696278 -0.19384073 0.007457166 -0.058333244 -8.268433 3.572282

sequential/dense_3/MatMul f4 [6, 50]
00000000: 16a9 3040 7195 5a40 ff04 90c0 f00c b740
00000010: 979b 85bc 7b32 873f 9a0e e540 8c72 1abc
00000020: 1c42 6f3f fc41 5c40 99f4 3d41 c0a9 ab3f
00000030: 1a55 a63f 4bd5 9840 b0be 0f3f 33a1 893f
00000040: 2770 5140 36fc e9be 8851 3c40 28b4 8bbc
00000050: 1636 fd40 022c 5e3f 9b9d 2940 7fff dd3f
00000060: a01c df40 1943 8d40 4152 3640 daf9 9540
00000070: 044f 21c0 d254 9840 9e4d f940 fa04 fb3f
00000080: 786b 153f 70ce a33f d0ca 0c40 a5bf 4f40
00000090: 72cb 2140 25d5 6140 1938 6a40 235b edbc
000000a0: 3e58 a5bf 520d 99bd 7487 8040 cfbb 4b3f
000000b0: 1670 a33f a04b 9f3f d716 74c0 f22c 8e3f
000000c0: 4abd bb3f b374 8b40 e417 3d40 764f 3b40
000000d0: 8c8e 8bc0 ea8d 8b40 4f3b a23c 0732 e03f
000000e0: 8da0 e740 ebbb 64bd b1a5 883f 2868 4c40
000000f0: 85a2 2641 44b1 b03f e7e4 e53f d81d 9640
00000100: 1ee0 cb3f 2fb9 9a3f c1a4 2540 6121 c5bf
00000110: 1235 2f40 4427 883b 6845 0241 9761 923f
00000120: 57b6 3140 bf90 e53f 3321 d740 fbf3 7e40
00000130: 920a 3440 6a0b 8b40 bb79 22c0 9b77 8940
00000140: abf8 0141 bbec d43f ee4f a83f 9942 983f
00000150: 3c89 9b3f 318b 5440 0136 0440 c20d 4740
00000160: 9f76 5840 547b 83bc c596 dfbf 8014 323e
00000170: e5e8 4f40 f574 803f 28b6 b53f e420 ba3f
00000180: a16d 5dc0 0d09 8b3f a670 1f40 c226 8b40
00000190: 14bb 4940 0f78 1f40 692c 8ac0 3a3e e43f
000001a0: dad3 89bc 2a81 2340 8f05 eb40 d5ae bd3c
000001b0: b714 8a3f 8f3e 4740 3952 1341 9971 b23f
000001c0: 39b5 2140 34ef 9140 6c45 6640 40cd ad3f
000001d0: 6a44 0c40 7425 cabf a821 1840 5f58 823c
000001e0: 2cb4 0741 b9b8 a13f ee0b 3540 4154 f43f
000001f0: 7e5c cb40 d947 6440 4b27 2e40 650b 8040
00000200: 1fbf 2ac0 4708 7c40 5188 0641 6e0f c33f
00000210: 151c f13f ae83 a73f 70ad af3c ccfd 5340
00000220: 75dc c73f 07e9 3a40 04a6 5640 a3b6 54bc
00000230: e4d3 08c0 330e be3d eecd c33f 635f 9c3f
00000240: 8e32 b93f 93e0 ba3f ebd3 4ec0 dfd5 a13f
00000250: 4af7 5940 3bc5 6b40 9ee1 4c40 a70a 0940
00000260: 8d96 8ec0 f3b1 febd c8f1 66bc 4cc3 6140
00000270: f255 e640 b1df 21bd bff6 aa3f 18fb 4040
00000280: 37c7 e440 75c3 a73f b014 5a40 11c8 7140
00000290: b3b0 a440 316e bf3f 2db2 e73f dfeb fcbf
000002a0: bf12 1a40 305e b23a 2254 0b41 ba2c b03f
000002b0: 553c 2c40 3ae1 0440 c463 c240 4e3e 5440
000002c0: d36f 1e40 d80d 6040 bf80 29c0 c5bc 5c40
000002d0: c560 0c41 346e a03f aefe 2040 8904 af3f
000002e0: 2957 76bf 8afb 5640 4eca 663f 379a 3940
000002f0: 8663 7540 fddf 2a3c 790b 1cc0 4dd9 b93d
00000300: 9754 9d3d 8b76 bd3f c26f b73f 2e5b b63f
00000310: b96c 49c0 9792 bc3f fcd1 7a40 aec8 3940
00000320: 3099 4940 0ba5 f73f bfd3 8fc0 bac9 3ec0
00000330: 9db4 f03c 50ff 8d40 ffb7 e740 5ca1 92bc
00000340: 4217 c13f 7ea2 3b40 98ad 9a40 df33 6c3f
00000350: 136c 7e40 b9de 6140 e121 cc40 b946 d03f
00000360: 75b9 aa3f fa88 c6bf 3012 1840 cca9 a1bc
00000370: d082 0d41 d863 cb3f d522 2840 a5cb 1140
00000380: 574f bc40 b994 5740 92d6 1840 58fc 3d40
00000390: e050 33c0 d23f 3640 a48b 1041 3e11 783f
000003a0: 3e87 4840 086b ba3f 2a79 f5bf a026 5b40
000003b0: fd7f 0d3f 4ef2 3440 e6db 6f40 ba4f 1c3d
000003c0: cd11 41c0 309f e03d 43cb 93bf 8051 da3f
000003d0: 0ed7 c23f d00d a03f e7ba 43c0 fffc d03f
000003e0: 3b1b 9040 b723 0d40 da41 5540 a186 a53f
000003f0: b4a7 94c0 8bef 96c0 31d7 81bc 2cdd b340
2.7603202 3.4153712 -4.50061 5.7203293 -0.016309543 1.056228 7.1580324 -0.009426724
0.9346025 3.4415274 11.872216 1.3411179 1.2994721 4.7760367 0.5615034 1.0752319
3.2724702 -0.45700234 2.9424763 -0.017053679 7.9128523 0.867859 2.6502445 1.7343596
6.9722443 4.4144406 2.8487704 4.6867495 -2.5204477 4.760354 7.7907248 1.9610894
0.5836711 1.2797375 2.1998787 3.246072 2.5280423 3.5286343 3.659674 -0.028974121
-1.2917554 -0.07473244 4.016535 0.7958345 1.2768581 1.2444954 -3.813894 1.1107466
1.4667141 4.3579955 2.9545832 2.926725 -4.3611507 4.3610735 0.019803671 1.7515267
7.2383485 -0.055843275 1.0675565 3.1938572 10.414678 1.3804097 1.796048 4.691143
1.592777 1.2087764 2.5881808 -1.5400811 2.7376142 0.0041550715 8.141945 1.1436032
2.7767541 1.7934798 6.7228026 3.9836414 2.8131452 4.3451433 -2.5386798 4.2958503
8.12321 1.6634744 1.3149393 1.1895324 1.2151256 3.3209956 2.0657961 3.1102147
3.38224 -0.016050018 -1.7467886 0.17390633 3.2485898 1.0035692 1.4196215 1.4541287
-3.4598162 1.0862137 2.4912505 4.348481 3.1520433 2.4917028 -4.317921 1.783149
-0.016824652 2.5547585 7.3444285 0.023154655 1.0787572 3.1131933 9.207574 1.3940917
2.526686 4.5604496 3.5979872 1.3578262 2.1916757 -1.579268 2.3770542 0.01591128
8.481487 1.2634498 2.8288531 1.9088212 6.3550406 3.5668852 2.7211483 4.001391
-2.667915 3.9380052 8.40828 1.5239084 1.8836695 1.308706 0.021445006 3.3123655
1.5614153 2.9204729 3.3538828 -0.012982997 -2.1379328 0.09280052 1.529722 1.221661
1.4468553 1.4599785 -3.2316844 1.2643393 3.4057183 3.683913 3.2012706 2.1412752
-4.455878 -0.12436285 -0.014095731 3.527545 7.1979914 -0.03951997 1.3356551 3.0153255
7.149318 1.3106524 3.4075127 3.777836 5.1465697 1.4955503 1.810125 -1.9759482
2.4073942 0.0013608392 8.70804 1.376365 2.6911824 2.0762467 6.0746784 3.3163028
2.4755752 3.500845 -2.648483 3.4490216 8.773625 1.2533631 2.5155444 1.3673259
-0.96226746 3.3591027 0.9015244 2.9000375 3.8341994 0.0104293795 -2.4382002 0.0907465
0.0768215 1.4801801 1.4330981 1.4246576 -3.147261 1.4732236 3.9190664 2.9028735
3.1499748 1.9347242 -4.494598 -2.9810624 0.029382998 4.437416 7.2412105 -0.017899208
1.5085223 2.9317927 4.8336906 0.9226665 3.9753463 3.529219 6.3791356 1.6271583
1.3337847 -1.5510552 2.37611 -0.019734286 8.844437 1.5889845 2.627126 2.2780545
5.884685 3.3684523 2.3880963 2.9685268 -2.8018112 2.8476453 9.034092 0.9690131
3.1332545 1.4563913 -1.9177601 3.4242325 0.5527342 2.827289 3.7477965 0.03816197
-3.0167115 0.109678626 -1.1546406 1.7056122 1.522188 1.2504215 -3.0582826 1.6327208
4.503324 2.2053049 3.3321443 1.293171 -4.6454716 -4.716741 -0.015849682 5.6207485
